torchmodel.pt (torch, 3799 bytes, 5 tensors)

weight f4 [20, 3]
000000 54 a1 00 3f a6 b4 82 3e 7b f8 c3 be 00 7a fd be
       0.5024617 0.2552845 -0.38275513 -0.4950714
000010 40 66 30 3c 08 2b 48 be d8 f7 d4 3e 0c f4 8b 3e
       0.010766566 -0.19547665 0.4159534 0.2733463
000020 32 a1 ad 3e d2 c9 31 be a0 81 11 be 50 3c 3b 3d
       0.33912045 -0.17362145 -0.14209604 0.045711815
000030 8c 22 4e 3e b0 68 80 3d 9c b6 d1 be 94 a7 c1 be
       0.20130366 0.062699676 -0.40959632 -0.37823164
000040 1c 22 54 3e 7c e0 d2 be dc 56 b9 bd 0e 01 5a be
       0.20716137 -0.41186893 -0.0904977 -0.21289465
000050 0e 4f 13 3f 40 61 8c bc f2 2a a7 3e 10 1d 4a bd
       0.575425 -0.017136216 0.32649952 -0.049344122
000060 58 4e 04 3e 36 0f 8c be 40 65 a5 bd b4 8a 58 3e
       0.12920511 -0.27355355 -0.080759525 0.21146661
000070 d6 96 9a be 78 0d 00 bf 80 cd e8 3d cc bc eb 3e
       -0.30193204 -0.5002055 0.11367321 0.46042478
000080 a8 b8 8f bd a9 b4 db be 4c 7a 45 3e 3c cd c4 be
       -0.07017642 -0.4291127 0.19284934 -0.3843783
000090 4e d4 bf be 76 bd c0 3e 30 5d 05 3f 00 40 f9 bb
       -0.37466663 0.37644547 0.5209532 -0.0076065063
0000a0 77 3a 05 bf f6 ed 00 3f ec 47 53 be ab f9 a3 be
       -0.52042335 0.503631 -0.20632905 -0.3202642
0000b0 c4 dc e2 3e e0 88 88 bc 94 51 36 3e 48 0b b8 be
       0.44309056 -0.01666683 0.17804557 -0.35946107
0000c0 ec 1f f0 bd bc 08 1c be 9a 99 3d be 86 c6 3a be
       -0.117248386 -0.15237707 -0.18515626 -0.18239793
0000d0 a4 6b 0e bf ee 44 99 be c8 03 de 3e e9 32 82 be
       -0.55632997 -0.29935402 0.4336226 -0.25429466
0000e0 30 ea 19 be a9 e6 0c bf 1e 7d 13 be 1e 9c 5e be
       -0.15030742 -0.5503946 -0.14403197 -0.21739241

bias f4 [20]
000000 7c 0c 4f 3f 18 60 43 3f 14 9c 58 3e 50 1a 7a 3d
       0.80878425 0.763185 0.21153289 0.06106025
000010 d0 41 4d 3f 8c b0 55 3f 03 8a 01 3f cc 1f 2b 3f
       0.80178547 0.83472514 0.50601214 0.66845393
000020 c8 c9 86 3d ff 37 72 3f 38 aa 40 3e fd c2 08 3f
       0.065814555 0.94616693 0.18814933 0.5342253
000030 8e 73 ee 3e a6 38 83 3e f8 bc d4 3d a8 dc 30 3e
       0.46572536 0.25629157 0.103876054 0.17271674
000040 12 7e f5 3e e7 a3 18 3f e0 9f 6e 3e d9 4c 38 3f
       0.47947747 0.59625095 0.23303175 0.7199226

weight f4 [1, 20]
000000 10 37 33 3e ac 5f cd bd 80 76 a8 3a 4e fa e0 bd
       0.17501473 -0.100280136 0.0012852699 -0.10985242
000010 6c 7f 53 bd 9a a0 17 3e 54 b3 92 3d a2 65 0f 3e
       -0.05163519 0.14807358 0.071631104 0.14003614
000020 70 a3 1d bc a6 0e 19 be 98 25 35 bd a8 91 23 3d
       -0.009621486 -0.14946994 -0.044225305 0.03993383
000030 f0 b5 c2 bc 0c 33 3a 3e d8 98 ae bd 8c 92 1d 3e
       -0.023768395 0.18183535 -0.085252464 0.15387934
000040 cc 32 19 be 44 e6 01 be 14 e3 56 bd c8 37 45 3d
       -0.14960784 -0.12685496 -0.052462652 0.0481489

bias f4 [20]
000000 c3 d9 4a 3f 00 6b 63 3b 0a 05 ca 3e 52 6d 31 3f
       0.7923853 0.0034701228 0.3945697 0.69307435
000010 cd 36 29 3f 6e e3 d0 3e c7 26 27 3f 63 3e 6a 3f
       0.66099244 0.40798515 0.65293545 0.91501445
000020 42 1a d4 3e 15 4e 28 3f 12 7e 02 3f 64 0f 23 3f
       0.41426283 0.65744144 0.5097362 0.6369536
000030 72 7d 26 3f 18 b2 be 3e 22 2a 90 3e f0 0a 84 3d
       0.65035164 0.3724525 0.28157145 0.06447399
000040 34 a1 2c 3e d4 a0 e7 3e 27 ef 16 3f 10 b5 8f 3e
       0.16858369 0.4523989 0.5895867 0.28067827

weight f4 [1, 20]
000000 f6 c1 c3 bd e8 87 bb 3d b0 eb 30 3e a0 d3 c0 bb
       -0.095584795 0.091567814 0.17277408 -0.0058846027
000010 ae 68 9a bd 18 11 12 3e 40 9e 9d bd d8 b8 1b 3e
       -0.07539497 0.14264333 -0.076961994 0.15207231
000020 f0 82 90 3d aa e5 c3 bd 77 9f 5c be f4 9b 81 bd
       0.07056224 -0.09565289 -0.21545206 -0.06328574
000030 e8 11 49 3d 2a 7e bd bd 36 cc 85 bd 18 d9 b5 bc
       0.049089342 -0.092525795 -0.06533091 -0.022198245
000040 f8 2f 4e 3d 80 6a f9 3b b8 3a 2c be f7 93 37 be
       0.050338715 0.0076115727 -0.16819274 -0.17927538
